…
2021-01-27 13:30:31,987   INFO  Database filter by min points Pedestrian: 2207 => 2168
2021-01-27 13:30:31,988   INFO  Database filter by min points Cyclist: 734 => 705
2021-01-27 13:30:32,002   INFO  Database filter by difficulty Car: 13532 => 10759
2021-01-27 13:30:32,005   INFO  Database filter by difficulty Pedestrian: 2168 => 2075
2021-01-27 13:30:32,005   INFO  Database filter by difficulty Cyclist: 705 => 581
2021-01-27 13:30:32,011   INFO  Loading KITTI dataset
2021-01-27 13:30:32,088   INFO  Total samples for KITTI dataset: 3712
2021-01-27 13:30:33,641   INFO  PointRCNN(
  (vfe): None
  (backbone_3d): PointTransformer(
    (fc_begin): Sequential(
      (0): Linear(in_features=4, out_features=32, bias=True)
      (1): ReLU()
      (2): Linear(in_features=32, out_features=32, bias=True)
    )
    (fc_middle): Sequential(
      (0): Linear(in_features=512, out_features=512, bias=True)
      (1): ReLU()
      (2): Linear(in_features=512, out_features=512, bias=True)
    )
    (transformer_begin): TransformerBlock(
      (fc1): Linear(in_features=32, out_features=512, bias=True)
      (fc2): Linear(in_features=512, out_features=32, bias=True)
      (fc_delta): Sequential(
        (0): Linear(in_features=3, out_features=512, bias=True)
        (1): ReLU()
        (2): Linear(in_features=512, out_features=512, bias=True)
      )
      (fc_gamma): Sequential(
        (0): Linear(in_features=512, out_features=512, bias=True)
        (1): ReLU()
        (2): Linear(in_features=512, out_features=512, bias=True)
      )
      (w_qs): Linear(in_features=512, out_features=512, bias=False)
      (w_ks): Linear(in_features=512, out_features=512, bias=False)
      (w_vs): Linear(in_features=512, out_features=512, bias=False)
    )
    (transformer_middle): TransformerBlock(
      (fc1): Linear(in_features=512, out_features=512, bias=True)
      (fc2): Linear(in_features=512, out_features=512, bias=True)
      (fc_delta): Sequential(
        (0): Linear(in_features=3, out_features=512, bias=True)
        (1): ReLU()
        (2): Linear(in_features=512, out_features=512, bias=True)
      )
      (fc_gamma): Sequential(
        (0): Linear(in_features=512, out_features=512, bias=True)
        (1): ReLU()
        (2): Linear(in_features=512, out_features=512, bias=True)
      )
      (w_qs): Linear(in_features=512, out_features=512, bias=False)
      (w_ks): Linear(in_features=512, out_features=512, bias=False)
      (w_vs): Linear(in_features=512, out_features=512, bias=False)
    )
    (transition_downs): ModuleList(
      (0): TransitionDown(
        (sa): PointNetSetAbstraction(
          (mlp_convs): ModuleList(
            (0): Conv2d(35, 64, kernel_size=(1, 1), stride=(1, 1))
            (1): Conv2d(64, 64, kernel_size=(1, 1), stride=(1, 1))
          )
          (mlp_bns): ModuleList(
            (0): BatchNorm2d(64, eps=1e-05, momentum=0.1, affine=True, track_running_stats=True)
            (1): BatchNorm2d(64, eps=1e-05, momentum=0.1, affine=True, track_running_stats=True)
          )
        )
      )
      (1): TransitionDown(
        (sa): PointNetSetAbstraction(
          (mlp_convs): ModuleList(
            (0): Conv2d(67, 128, kernel_size=(1, 1), stride=(1, 1))
            (1): Conv2d(128, 128, kernel_size=(1, 1), stride=(1, 1))
          )
          (mlp_bns): ModuleList(
            (0): BatchNorm2d(128, eps=1e-05, momentum=0.1, affine=True, track_running_stats=True)
            (1): BatchNorm2d(128, eps=1e-05, momentum=0.1, affine=True, track_running_stats=True)
          )
        )
      )
      (2): TransitionDown(
        (sa): PointNetSetAbstraction(
          (mlp_convs): ModuleList(
            (0): Conv2d(131, 256, kernel_size=(1, 1), stride=(1, 1))
            (1): Conv2d(256, 256, kernel_size=(1, 1), stride=(1, 1))
          )
          (mlp_bns): ModuleList(
            (0): BatchNorm2d(256, eps=1e-05, momentum=0.1, affine=True, track_running_stats=True)
            (1): BatchNorm2d(256, eps=1e-05, momentum=0.1, affine=True, track_running_stats=True)
          )
        )
      )
      (3): TransitionDown(
        (sa): PointNetSetAbstraction(
          (mlp_convs): ModuleList(
            (0): Conv2d(259, 512, kernel_size=(1, 1), stride=(1, 1))
            (1): Conv2d(512, 512, kernel_size=(1, 1), stride=(1, 1))
          )
          (mlp_bns): ModuleList(
            (0): BatchNorm2d(512, eps=1e-05, momentum=0.1, affine=True, track_running_stats=True)
            (1): BatchNorm2d(512, eps=1e-05, momentum=0.1, affine=True, track_running_stats=True)
          )
        )
      )
    )
    (transition_ups): ModuleList(
      (0): TransitionUp(
        (P2_fc): Sequential(
          (0): Linear(in_features=512, out_features=512, bias=True)
          (1): BatchNorm2d(512, eps=1e-05, momentum=0.1, affine=True, track_running_stats=True)
          (2): ReLU()
        )
        (P1_fc): Linear(in_features=256, out_features=256, bias=False)
      )
      (1): TransitionUp(
        (P2_fc): Sequential(
          (0): Linear(in_features=256, out_features=256, bias=True)
          (1): BatchNorm2d(256, eps=1e-05, momentum=0.1, affine=True, track_running_stats=True)
          (2): ReLU()
        )
        (P1_fc): Linear(in_features=128, out_features=128, bias=False)
      )
      (2): TransitionUp(
        (P2_fc): Sequential(
          (0): Linear(in_features=128, out_features=128, bias=True)
          (1): BatchNorm2d(128, eps=1e-05, momentum=0.1, affine=True, track_running_stats=True)
          (2): ReLU()
        )
        (P1_fc): Linear(in_features=64, out_features=64, bias=False)
      )
      (3): TransitionUp(
        (P2_fc): Sequential(
          (0): Linear(in_features=64, out_features=64, bias=True)
          (1): BatchNorm2d(64, eps=1e-05, momentum=0.1, affine=True, track_running_stats=True)
          (2): ReLU()
        )
        (P1_fc): Linear(in_features=32, out_features=32, bias=False)
      )
    )
    (transformer_downs): ModuleList(
      (0): TransformerBlock(
        (fc1): Linear(in_features=64, out_features=512, bias=True)
        (fc2): Linear(in_features=512, out_features=64, bias=True)
        (fc_delta): Sequential(
          (0): Linear(in_features=3, out_features=512, bias=True)
          (1): ReLU()
          (2): Linear(in_features=512, out_features=512, bias=True)
        )
        (fc_gamma): Sequential(
          (0): Linear(in_features=512, out_features=512, bias=True)
          (1): ReLU()
          (2): Linear(in_features=512, out_features=512, bias=True)
        )
        (w_qs): Linear(in_features=512, out_features=512, bias=False)
        (w_ks): Linear(in_features=512, out_features=512, bias=False)
        (w_vs): Linear(in_features=512, out_features=512, bias=False)
      )
      (1): TransformerBlock(
        (fc1): Linear(in_features=128, out_features=512, bias=True)
        (fc2): Linear(in_features=512, out_features=128, bias=True)
        (fc_delta): Sequential(
          (0): Linear(in_features=3, out_features=512, bias=True)
          (1): ReLU()
          (2): Linear(in_features=512, out_features=512, bias=True)
        )
        (fc_gamma): Sequential(
          (0): Linear(in_features=512, out_features=512, bias=True)
          (1): ReLU()
          (2): Linear(in_features=512, out_features=512, bias=True)
        )
        (w_qs): Linear(in_features=512, out_features=512, bias=False)
        (w_ks): Linear(in_features=512, out_features=512, bias=False)
        (w_vs): Linear(in_features=512, out_features=512, bias=False)
      )
      (2): TransformerBlock(
        (fc1): Linear(in_features=256, out_features=512, bias=True)
        (fc2): Linear(in_features=512, out_features=256, bias=True)
        (fc_delta): Sequential(
          (0): Linear(in_features=3, out_features=512, bias=True)
          (1): ReLU()
          (2): Linear(in_features=512, out_features=512, bias=True)
        )
        (fc_gamma): Sequential(
          (0): Linear(in_features=512, out_features=512, bias=True)
          (1): ReLU()
          (2): Linear(in_features=512, out_features=512, bias=True)
        )
        (w_qs): Linear(in_features=512, out_features=512, bias=False)
        (w_ks): Linear(in_features=512, out_features=512, bias=False)
        (w_vs): Linear(in_features=512, out_features=512, bias=False)
      )
      (3): TransformerBlock(
        (fc1): Linear(in_features=512, out_features=512, bias=True)
        (fc2): Linear(in_features=512, out_features=512, bias=True)
        (fc_delta): Sequential(
          (0): Linear(in_features=3, out_features=512, bias=True)
          (1): ReLU()
          (2): Linear(in_features=512, out_features=512, bias=True)
        )
        (fc_gamma): Sequential(
          (0): Linear(in_features=512, out_features=512, bias=True)
          (1): ReLU()
          (2): Linear(in_features=512, out_features=512, bias=True)
        )
        (w_qs): Linear(in_features=512, out_features=512, bias=False)
        (w_ks): Linear(in_features=512, out_features=512, bias=False)
        (w_vs): Linear(in_features=512, out_features=512, bias=False)
      )
    )
    (transformer_ups): ModuleList(
      (0): TransformerBlock(
        (fc1): Linear(in_features=512, out_features=512, bias=True)
        (fc2): Linear(in_features=512, out_features=512, bias=True)
        (fc_delta): Sequential(
          (0): Linear(in_features=3, out_features=512, bias=True)
          (1): ReLU()
          (2): Linear(in_features=512, out_features=512, bias=True)
        )
        (fc_gamma): Sequential(
          (0): Linear(in_features=512, out_features=512, bias=True)
          (1): ReLU()
          (2): Linear(in_features=512, out_features=512, bias=True)
        )
        (w_qs): Linear(in_features=512, out_features=512, bias=False)
        (w_ks): Linear(in_features=512, out_features=512, bias=False)
        (w_vs): Linear(in_features=512, out_features=512, bias=False)
      )
      (1): TransformerBlock(
        (fc1): Linear(in_features=256, out_features=512, bias=True)
        (fc2): Linear(in_features=512, out_features=256, bias=True)
        (fc_delta): Sequential(
          (0): Linear(in_features=3, out_features=512, bias=True)
          (1): ReLU()
          (2): Linear(in_features=512, out_features=512, bias=True)
        )
        (fc_gamma): Sequential(
          (0): Linear(in_features=512, out_features=512, bias=True)
          (1): ReLU()
          (2): Linear(in_features=512, out_features=512, bias=True)
        )
        (w_qs): Linear(in_features=512, out_features=512, bias=False)
        (w_ks): Linear(in_features=512, out_features=512, bias=False)
        (w_vs): Linear(in_features=512, out_features=512, bias=False)
      )
      (2): TransformerBlock(
        (fc1): Linear(in_features=128, out_features=512, bias=True)
        (fc2): Linear(in_features=512, out_features=128, bias=True)
        (fc_delta): Sequential(
          (0): Linear(in_features=3, out_features=512, bias=True)
          (1): ReLU()
          (2): Linear(in_features=512, out_features=512, bias=True)
        )
        (fc_gamma): Sequential(
          (0): Linear(in_features=512, out_features=512, bias=True)
          (1): ReLU()
          (2): Linear(in_features=512, out_features=512, bias=True)
        )
        (w_qs): Linear(in_features=512, out_features=512, bias=False)
        (w_ks): Linear(in_features=512, out_features=512, bias=False)
        (w_vs): Linear(in_features=512, out_features=512, bias=False)
      )
      (3): TransformerBlock(
        (fc1): Linear(in_features=64, out_features=512, bias=True)
        (fc2): Linear(in_features=512, out_features=64, bias=True)
        (fc_delta): Sequential(
          (0): Linear(in_features=3, out_features=512, bias=True)
          (1): ReLU()
          (2): Linear(in_features=512, out_features=512, bias=True)
        )
        (fc_gamma): Sequential(
          (0): Linear(in_features=512, out_features=512, bias=True)
          (1): ReLU()
          (2): Linear(in_features=512, out_features=512, bias=True)
        )
        (w_qs): Linear(in_features=512, out_features=512, bias=False)
        (w_ks): Linear(in_features=512, out_features=512, bias=False)
        (w_vs): Linear(in_features=512, out_features=512, bias=False)
      )
    )
  )
  (map_to_bev_module): None
  (pfe): None
  (backbone_2d): None
  (dense_head): None
  (point_head): PointHeadBox(
    (cls_loss_func): SigmoidFocalClassificationLoss()
    (reg_loss_func): WeightedSmoothL1Loss()
    (cls_layers): Sequential(
      (0): Linear(in_features=512, out_features=256, bias=False)
      (1): BatchNorm1d(256, eps=1e-05, momentum=0.1, affine=True, track_running_stats=True)
      (2): ReLU()
      (3): Linear(in_features=256, out_features=256, bias=False)
      (4): BatchNorm1d(256, eps=1e-05, momentum=0.1, affine=True, track_running_stats=True)
      (5): ReLU()
      (6): Linear(in_features=256, out_features=3, bias=True)
    )
    (box_layers): Sequential(
      (0): Linear(in_features=512, out_features=256, bias=False)
      (1): BatchNorm1d(256, eps=1e-05, momentum=0.1, affine=True, track_running_stats=True)
      (2): ReLU()
      (3): Linear(in_features=256, out_features=256, bias=False)
      (4): BatchNorm1d(256, eps=1e-05, momentum=0.1, affine=True, track_running_stats=True)
      (5): ReLU()
      (6): Linear(in_features=256, out_features=8, bias=True)
    )
  )
  (roi_head): PointRCNNHead(
    (proposal_target_layer): ProposalTargetLayer()
    (reg_loss_func): WeightedSmoothL1Loss()
    (SA_modules): ModuleList(
      (0): PointnetSAModule(
        (groupers): ModuleList(
          (0): QueryAndGroup()
        )
        (mlps): ModuleList(
          (0): Sequential(
            (0): Conv2d(515, 128, kernel_size=(1, 1), stride=(1, 1), bias=False)
            (1): BatchNorm2d(128, eps=1e-05, momentum=0.1, affine=True, track_running_stats=True)
            (2): ReLU()
            (3): Conv2d(128, 128, kernel_size=(1, 1), stride=(1, 1), bias=False)
            (4): BatchNorm2d(128, eps=1e-05, momentum=0.1, affine=True, track_running_stats=True)
            (5): ReLU()
            (6): Conv2d(128, 128, kernel_size=(1, 1), stride=(1, 1), bias=False)
            (7): BatchNorm2d(128, eps=1e-05, momentum=0.1, affine=True, track_running_stats=True)
            (8): ReLU()
          )
        )
      )
      (1): PointnetSAModule(
        (groupers): ModuleList(
          (0): QueryAndGroup()
        )
        (mlps): ModuleList(
          (0): Sequential(
            (0): Conv2d(131, 128, kernel_size=(1, 1), stride=(1, 1), bias=False)
            (1): BatchNorm2d(128, eps=1e-05, momentum=0.1, affine=True, track_running_stats=True)
            (2): ReLU()
            (3): Conv2d(128, 128, kernel_size=(1, 1), stride=(1, 1), bias=False)
            (4): BatchNorm2d(128, eps=1e-05, momentum=0.1, affine=True, track_running_stats=True)
            (5): ReLU()
            (6): Conv2d(128, 256, kernel_size=(1, 1), stride=(1, 1), bias=False)
            (7): BatchNorm2d(256, eps=1e-05, momentum=0.1, affine=True, track_running_stats=True)
            (8): ReLU()
          )
        )
      )
      (2): PointnetSAModule(
        (groupers): ModuleList(
          (0): GroupAll()
        )
        (mlps): ModuleList(
          (0): Sequential(
            (0): Conv2d(259, 256, kernel_size=(1, 1), stride=(1, 1), bias=False)
            (1): BatchNorm2d(256, eps=1e-05, momentum=0.1, affine=True, track_running_stats=True)
            (2): ReLU()
            (3): Conv2d(256, 256, kernel_size=(1, 1), stride=(1, 1), bias=False)
            (4): BatchNorm2d(256, eps=1e-05, momentum=0.1, affine=True, track_running_stats=True)
            (5): ReLU()
            (6): Conv2d(256, 512, kernel_size=(1, 1), stride=(1, 1), bias=False)
            (7): BatchNorm2d(512, eps=1e-05, momentum=0.1, affine=True, track_running_stats=True)
            (8): ReLU()
          )
        )
      )
    )
    (xyz_up_layer): Sequential(
      (0): Conv2d(5, 128, kernel_size=(1, 1), stride=(1, 1))
      (1): ReLU()
      (2): Conv2d(128, 128, kernel_size=(1, 1), stride=(1, 1))
      (3): ReLU()
    )
    (merge_down_layer): Sequential(
      (0): Conv2d(256, 128, kernel_size=(1, 1), stride=(1, 1))
      (1): ReLU()
    )
    (cls_layers): Sequential(
      (0): Conv1d(512, 256, kernel_size=(1,), stride=(1,), bias=False)
      (1): BatchNorm1d(256, eps=1e-05, momentum=0.1, affine=True, track_running_stats=True)
      (2): ReLU()
      (3): Dropout(p=0.0)
      (4): Conv1d(256, 256, kernel_size=(1,), stride=(1,), bias=False)
      (5): BatchNorm1d(256, eps=1e-05, momentum=0.1, affine=True, track_running_stats=True)
      (6): ReLU()
      (7): Conv1d(256, 1, kernel_size=(1,), stride=(1,))
    )
    (reg_layers): Sequential(
      (0): Conv1d(512, 256, kernel_size=(1,), stride=(1,), bias=False)
      (1): BatchNorm1d(256, eps=1e-05, momentum=0.1, affine=True, track_running_stats=True)
      (2): ReLU()
      (3): Dropout(p=0.0)
      (4): Conv1d(256, 256, kernel_size=(1,), stride=(1,), bias=False)
      (5): BatchNorm1d(256, eps=1e-05, momentum=0.1, affine=True, track_running_stats=True)
      (6): ReLU()
      (7): Conv1d(256, 7, kernel_size=(1,), stride=(1,))
    )
    (roipoint_pool3d_layer): RoIPointPool3d()
  )
)
2021-01-27 13:30:33,643   INFO  **********************Start training home/leichen/OpenPCDet/tools/cfgs/kitti_models/point_transformer(default)**********************
